…
    "conf_jobnum": "8561effd-55a0-4bb1-95e9-4db2a3ba328a",
    "conf_timestamp": "2024-01-15 12:12:08.256381",
    "conf_host": "Home-Lab"
}
====================================================================================================
=========================================================================================================
Layer (type:depth-idx)                                  Output Shape              Param #
=========================================================================================================
Fixr                                                    [32, 6]                   --
├─EfficientNet: 1-1                                     [32, 6]                   --
│    └─Conv2dStaticSamePadding: 2-1                     [32, 32, 112, 112]        864
│    │    └─ZeroPad2d: 3-1                              [32, 3, 225, 225]         --
│    └─BatchNorm2d: 2-2                                 [32, 32, 112, 112]        64
│    └─MemoryEfficientSwish: 2-3                        [32, 32, 112, 112]        --
│    └─ModuleList: 2-4                                  --                        --
│    │    └─MBConvBlock: 3-2                            [32, 16, 112, 112]        1,448
│    │    └─MBConvBlock: 3-3                            [32, 24, 56, 56]          6,004
│    │    └─MBConvBlock: 3-4                            [32, 24, 56, 56]          10,710
│    │    └─MBConvBlock: 3-5                            [32, 40, 28, 28]          15,350
│    │    └─MBConvBlock: 3-6                            [32, 40, 28, 28]          31,290
│    │    └─MBConvBlock: 3-7                            [32, 80, 14, 14]          37,130
│    │    └─MBConvBlock: 3-8                            [32, 80, 14, 14]          102,900
│    │    └─MBConvBlock: 3-9                            [32, 80, 14, 14]          102,900
│    │    └─MBConvBlock: 3-10                           [32, 112, 14, 14]         126,004
│    │    └─MBConvBlock: 3-11                           [32, 112, 14, 14]         208,572
│    │    └─MBConvBlock: 3-12                           [32, 112, 14, 14]         208,572
│    │    └─MBConvBlock: 3-13                           [32, 192, 7, 7]           262,492
│    │    └─MBConvBlock: 3-14                           [32, 192, 7, 7]           587,952
│    │    └─MBConvBlock: 3-15                           [32, 192, 7, 7]           587,952
│    │    └─MBConvBlock: 3-16                           [32, 192, 7, 7]           587,952
│    │    └─MBConvBlock: 3-17                           [32, 320, 7, 7]           717,232
│    └─Conv2dStaticSamePadding: 2-5                     [32, 1280, 7, 7]          409,600
│    │    └─Identity: 3-18                              [32, 320, 7, 7]           --
│    └─BatchNorm2d: 2-6                                 [32, 1280, 7, 7]          2,560
│    └─MemoryEfficientSwish: 2-7                        [32, 1280, 7, 7]          --
│    └─AdaptiveAvgPool2d: 2-8                           [32, 1280, 1, 1]          --
│    └─Linear: 2-9                                      [32, 512]                 655,872
│    └─Dropout: 2-10                                    [32, 512]                 --
│    └─Linear: 2-11                                     [32, 6]                   3,078
=========================================================================================================
Total params: 4,666,498
Trainable params: 4,666,498
Non-trainable params: 0
Total mult-adds (M): 22.43
=========================================================================================================
Input size (MB): 19.27
Forward/backward pass size (MB): 1724.98
Params size (MB): 2.80
…
